flask/data.pth (torch, 10903 bytes, 6 tensors)

l1.weight f4 [8, 156]
-0.18222913 -0.026268004 -0.1486821 0.35559812 -0.6318068 -0.043317225 1.2436857 -0.0923408
-0.7489678 -0.31363347 0.5716486 0.0030495822 0.17375606 0.17690909 -0.34106523 0.15975858
0.23662537 -0.38527516 -0.31510115 0.16286014 -0.37492913 0.10533007 -0.7563976 -0.7483791
-0.04066909 -0.11450654 0.01925237 1.2112306 -0.6806908 -0.39472502 0.91657686 -1.2590712
0.18290134 -0.066249914 0.12531668 -0.7583018 1.3273286 0.3234017 0.07235606 -0.40645802
-0.32747492 -0.192687 0.1132067 1.0410321 0.043368325 1.0073738 0.23959903 -1.3844625
-0.7975236 0.02519512 0.4553212 0.6836784 -0.7395218 0.8782943 2.0027974 0.29678643
-0.70083106 0.38499323 0.17840353 0.92476916 0.7681793 0.038536556 -0.7084845 -0.038901668
-0.10013913 -0.37610084 -0.69391465 -0.30260426 -0.32170728 0.20954536 -0.16223882 0.30075872
0.012105779 -0.2596526 0.46966755 0.29479277 0.17717054 -0.9829285 0.024509689 0.83764255
-1.268974 0.43354666 0.8658618 -0.0880029 0.1476133 0.15685093 -0.1297644 0.91268784
0.7024186 0.2560349 1.2713064 -0.09254095 -0.021921573 0.5202929 0.13456236 0.8345605
0.75356245 0.1897177 -0.07111337 -0.04088975 -0.2179366 0.49138564 -0.07344376 -0.014641285
0.0263181 -0.3250324 -0.47934064 -0.28359076 -0.08366505 -1.7418336 0.5677303 -0.27840558
0.19412193 1.8354218 1.0558103 0.38282704 0.2604702 0.09623324 -0.43564266 0.85436195
1.0531005 2.1051786 -0.75844526 0.2694625 -0.044772305 0.153897 -0.040508565 0.048276905
-1.361231 -0.0017315522 0.0827462 -0.0015582049 -1.1477205 -0.7319903 1.1737306 -0.6528597
0.8828343 0.2609613 0.8137134 -0.09395916 -0.15005544 -0.19496104 -0.12675613 0.028928181
0.30868775 -0.029739084 -0.055260032 0.484034 -0.29319665 0.15763825 0.31854996 0.070507646
0.12924227 -0.059177164 0.10642057 -0.098721355 0.5415925 -0.0016600346 0.19430225 -0.037556116
1.2280767 -0.103290655 -0.8817771 0.30076095 0.834178 0.56949264 -0.015722921 0.17666179
1.1542999 -0.1305843 0.55420804 -0.002026172 0.16415046 -0.65076053 0.6535758 -0.112565115
-0.026079873 0.3602428 0.58652 0.5892994 -0.062590934 0.11528535 0.035776854 -1.4292274
0.7476208 0.616334 -1.0518194 -0.47188774 -1.221226 1.2197576 -0.1005169 -0.8158027
-0.24290022 0.021097984 -0.0076882998 -0.07816247 0.5313891 -1.2064911 -0.0366145 0.2633411
0.35023615 0.05661975 -0.32330984 -0.6520105 0.8341261 0.26413926 0.8747726 0.5642308
1.1075852 1.1660455 0.43070924 -0.041462783 -0.81545806 -0.16485122 1.4312012 0.12173599
0.9042015 0.19830576 -0.8161927 0.084300645 0.22560917 -0.49653497 -0.81608385 -0.516367
-0.5164111 -0.10611364 0.2326677 0.13785835 0.28917706 0.32878095 0.73351234 -0.11881772
0.47858778 0.65726924 0.0024807448 -0.29261044 -0.9165259 0.90278697 -0.5701264 -0.02928194
-0.08899288 1.3786311 0.5172547 -0.6868546 1.0025742 0.012259668 -0.023107933 -0.24366672
-0.039241467 0.8489066 0.3860486 1.2281224 -0.17201176 0.52820885 0.27062225 0.061987635
00000000: 469a 3abe ff2f d7bc 1f40 18be f510 b63e
00000010: 17be 21bf 676d 31bd 1831 9f3f 2c1d bdbd
00000020: 5bbc 3fbf 9194 a0be 9057 123f 80db 473b
00000030: 1ced 313e a827 353e 1aa0 aebe c197 233e
00000040: ec4d 723e c942 c5be f054 a1be cfc4 263e
00000050: b6f6 bfbe 4bb7 d73d 46a3 41bf c695 3fbf
00000060: a294 26bd 6882 eabd 25b7 9d3c 9b09 9b3f
00000070: c141 2ebf 6619 cabe c8a4 6a3f 3f29 a1bf
00000080: 7d4a 3b3e 09ae 87bd 0453 003e 1120 42bf
00000090: e7e5 a93f e894 a53e 6a2f 943d 441b d0be
000000a0: cbaa a7be be4f 45be ead8 e73d 8a40 853f
000000b0: fca2 313d a0f1 803f 7359 753e 1136 b1bf
000000c0: 822a 4cbf ff65 ce3c dc1f e93e 8c05 2f3f
000000d0: 4d51 3dbf e5d7 603f d52d 0040 64f4 973e
000000e0: aa69 33bf d51d c53e 6aaf 363e acbd 6c3f
000000f0: 66a7 443f 82d8 1d3d 3d5f 35bf 5b57 1fbd
00000100: bf15 cdbd 4a90 c0be 64a4 31bf f2ee 9abe
00000110: d1b6 a4be 0f93 563e ef21 26be 0cfd 993e
00000120: 5157 463c 30f1 84be 4478 f03e 14ef 963e
00000130: 326c 353e 34a1 7bbf 8bc8 c83c be6f 563f
00000140: bd6d a2bf d4f9 dd3e 1ea9 5d3f dd3a b4bd
00000150: f127 173e 889d 203e f5e0 04be e9a5 693f
00000160: b5d1 333f 0217 833e 2bba a23f 1c86 bdbd
00000170: df94 b3bc ea31 053f b7ca 093e c2a5 553f
00000180: 78e9 403f 5b45 423e e3a3 91bd 037c 27bd
00000190: c62a 5fbe e696 fb3e af69 96bd 00e2 6fbc
000001a0: 0e99 d73c a66a a6be 236c f5be cf32 91be
000001b0: 9558 abbd 67f4 debf c656 113f 2d8b 8ebe
000001c0: e6c7 463e 1aef ea3f cb24 873f e801 c43e
000001d0: 5a5c 853e ef15 c53d 8e0c dfbe 77b7 5a3f
000001e0: ffcb 863f 3fbb 0640 7829 42bf fdf6 893e
000001f0: 2a63 37bd 2d97 1d3e 4fec 25bd 01be 453d
00000200: d13c aebf 40f5 e2ba d776 a93d ae3c ccba
00000210: 81e8 92bf b763 3bbf ce3c 963f d021 27bf
00000220: 6e01 623f b89c 853e 854f 503f a96d c0bd
00000230: 22a8 19be dea3 47be 5ccc 01be cbfa ec3c
00000240: 520c 9e3e 619f f3bc 5858 62bd 4ed3 f73e
00000250: df1d 96be ec6b 213e fb18 a33e 5066 903d
00000260: 1658 043e c163 72bd 07f3 d93d 6c2e cabd
00000270: cea5 0a3f 8595 d9ba 2bf7 463e 71d4 19bd
00000280: 9e31 9d3f 0d8a d3bd 25bc 61bf 57fd 993e
00000290: b08c 553f 45ca 113f 5bcd 80bc d4e6 343e
000002a0: 19c0 933f e4b7 05be 94e0 0d3f 86c9 04bb
000002b0: 0f17 283e 3e98 26bf be50 273f 8a88 e6bd
000002c0: 75a5 d5bc bf71 b83e 2d26 163f 53dc 163f
000002d0: ad2f 80bd ba1a ec3d c08a 123d ecf0 b6bf
000002e0: 1464 3f3f 11c8 1d3f 05a2 86bf 459b f1be
000002f0: 2251 9cbf 0421 9c3f cedb cdbd 72d8 50bf
00000300: d6ba 78be aed5 ac3c 22ee fbbb a513 a0bd
00000310: 1e09 083f 4d6e 9abf 16f9 15bd a5d4 863e
00000320: 2752 b33e 1cea 673d de88 a5be 29ea 26bf
00000330: 4a89 553f 433d 873e 19f1 5f3f 6e71 103f
00000340: 5ac5 8d3f fb40 953f ec85 dc3e e1d4 29bd
00000350: dcc1 50bf c2ce 28be 9a31 b73f b850 f93d
00000360: c079 673f aa10 4b3e 01f2 50bf d1a5 ac3d
00000370: 1706 673e d539 febe dfea 50bf a130 04bf
00000380: 8533 04bf 1c52 d9bd 7140 6e3e bd2a 0d3e
00000390: 040f 943e fa55 a83e 77c7 3b3f b456 f3bd
000003a0: 7509 f53e cc42 283f fe93 223b 09d1 95be
000003b0: 71a1 6abf 0c1d 673f cef3 11bf aee0 efbc
000003c0: e641 b6bd fc76 b03f ce6a 043f b4d5 2fbf
000003d0: 5a54 803f c6dc 483c d94c bdbc c583 79be
000003e0: a9bb 20bd f151 593f 29a8 c53e 1d33 9d3f
000003f0: da23 30be b238 073f 008f 8a3e bfe6 7d3d

l1.bias f4 [8]
0.67082417 0.79136616 1.161315 1.1768706 0.72808194 0.7249066 1.2061864 0.95456505
00000000: 22bb 2b3f f996 4a3f f8a5 943f b2a3 963f
00000010: 9463 3a3f 7b93 393f 5164 9a3f 605e 743f

l2.weight f4 [8, 8]
1.1252117 -1.712679 0.88879246 -1.2232472 1.1951284 -0.27316424 1.4958942 2.065623
1.4670447 2.1751897 0.5270875 -2.010121 1.3664635 0.60076654 1.5944307 -0.54720736
-2.216268 -0.03217907 2.1823874 1.865583 -0.749339 -0.10525588 2.0339267 -0.7647429
0.12074199 -0.22251754 -0.1080056 0.012270302 -0.097076505 -0.26776478 -0.08629984 0.0030698776
-0.5520673 1.6853149 -0.3259932 1.4953195 -0.37872002 2.1823013 0.1156518 2.2366314
1.08102 0.36982575 -1.0549544 1.150216 -0.9174789 -1.3916976 1.5581315 2.3316178
1.5667044 -0.43980524 2.0110307 1.754781 1.5891404 -1.4630563 -0.8261998 -0.029116893
-0.3331851 1.7889874 0.772122 -0.16667831 2.092432 2.0611184 -0.8954736 0.529141
00000000: f006 903f 1139 dbbf e787 633f 5d93 9cbf
00000010: f8f9 983f 2fdc 8bbe 7679 bf3f 2b33 0440
00000020: 1fc8 bb3f 4f36 0b40 35ef 063f d3a5 00c0
00000030: 47e8 ae3f d6cb 193f 4e16 cc3f c815 0cbf
00000040: 56d7 0dc0 33ce 03bd 3cac 0b40 6ccb ee3f
00000050: aed4 3fbf 6590 d7bd db2b 0240 31c6 43bf
00000060: 9447 f73d a3db 63be 0a32 ddbd 6009 493c
00000070: 0cd0 c6bd 7718 89be f8bd b0bd 0030 493b
00000080: 4854 0dbf 66b8 d73f 95e8 a6be a166 bf3f
00000090: 97e7 c1be d3aa 0b40 dada ec3d f824 0f40
000000a0: dd5e 8a3f cd59 bd3e bf08 87bf 473a 933f
000000b0: e6df 6abf 2623 b2bf da70 c73f 3a39 1540
000000c0: c589 c83f 272e e1be bab4 0040 aa9c e03f
000000d0: f468 cb3f 6e45 bbbf d581 53bf 8d86 eebc
000000e0: 3d97 aabe 8afd e43f caa9 453f b8ad 2abe
000000f0: 68ea 0540 5de9 0340 c23d 65bf c975 073f

l2.bias f4 [8]
0.2110853 0.72655547 0.9568015 -0.35177204 -0.045744967 0.51095885 0.16981712 -0.38146085
00000000: bf26 583e 8aff 393f f1f0 743f 771b b4be
00000010: 135f 3bbd 33ce 023f 8ae4 2d3e d64e c3be

l3.weight f4 [31, 8]
-1.7913642 -0.6308397 0.6950399 -0.2550656 0.58746 0.22564322 -2.9490728 -0.2669052
0.54203176 -0.18139945 -0.81658316 -0.0015159249 -2.1167178 -0.61895484 0.60753626 -0.57675874
-0.34157956 -1.3217957 0.13903292 0.3422468 0.6413523 1.0299336 -1.892702 -2.4298491
-2.131751 -1.2444249 -0.593864 0.007170707 0.5526333 -0.01754883 -0.22989936 0.4586892
-3.000445 -1.0784758 1.1762152 -0.29271436 0.0046073855 0.35793376 -0.39203316 -3.4804616
-2.720607 -0.9310349 0.88180846 0.14533037 0.68935186 -2.0596738 -1.1614839 0.07760818
0.81947005 -0.6740704 -1.3335303 0.11541852 0.22238213 0.8475446 -0.5958484 -2.5745883
0.47977993 -1.245782 -0.13148081 -0.22443917 -0.04396206 -0.060538013 -0.07446646 -0.381859
-2.467505 -2.229897 -0.08526191 0.13108069 0.5016513 0.6082563 0.5465599 -2.0294557
0.04230166 0.48267457 -0.44769174 -0.17151824 0.17136835 0.61802226 -3.3255525 -0.8708015
-0.8352268 0.022175264 -1.7282987 -0.32784566 0.928816 0.085969105 -2.7791507 0.23882124
0.8276743 0.75024253 -2.8726861 0.09751466 -2.3131478 -0.96777415 -0.20724142 0.10568512
-0.23690076 -0.73999363 -2.2544725 -0.17146868 0.42689806 -0.32537538 0.39344555 0.31405023
-2.1730938 0.56975484 -3.5831304 0.1753827 0.5129771 -1.4469519 0.20249723 0.5501686
-1.3577142 0.081931844 -2.0476813 0.23114613 0.57528114 -1.95716 -2.3061619 1.0532585
-2.6248283 -0.53465587 -0.17912468 0.28627953 0.18415183 -1.8916839 0.2582149 0.26420876
-2.718516 -2.1876094 0.8838916 0.29508165 -0.41179812 -0.6256457 0.8265447 -0.9792958
0.831118 0.4504909 -3.5908864 0.03146419 0.19346145 0.448082 -2.9700792 -0.13533312
0.022873608 -0.53198427 -0.5645893 -0.3364469 -0.7859485 0.2906978 0.98466516 -2.868941
-0.26494867 -2.7416887 0.25994295 -0.18347809 0.1767682 -2.251396 0.3601626 0.09072831
-2.019183 0.7275302 0.045209087 -0.094793856 0.14751506 -1.5807291 -4.0001707 0.71221995
0.42061615 -0.12604134 -3.2245553 0.10344514 -0.9091494 -0.07359492 0.6784626 -0.22379991
0.38968265 -2.4971414 0.7187584 -0.18289642 -0.053211197 0.11916567 -0.1728784 -3.1810856
0.14931661 0.4904484 -1.2526895 -0.23276013 0.10026375 -0.26482433 -0.87876457 0.36172897
-2.3443127 0.33794647 0.13691494 -0.02225253 -0.30724013 0.4196169 -0.02713309 -0.7495821
0.077845365 0.056317646 0.9157813 0.03453821 -1.5011065 -1.8693902 -0.08670033 -1.3058195
-0.07127896 0.46444166 -3.3858922 0.15196529 -0.1531918 0.84208477 -0.21372734 -0.50697327
0.83574253 0.21229407 0.033123408 0.14074612 -0.8490516 0.18824689 -1.0743655 -1.6975747
-0.28309935 0.62464523 -0.99234706 -0.26525924 -0.10950024 -0.8228755 -0.04542562 0.047910128
-0.41789055 -0.030592605 0.6497248 -0.08269957 0.0198858 -1.3618499 -1.4417347 -0.070728295
0.65084183 0.8678229 -2.279014 -0.21945825 -1.8698415 0.6022411 0.118642844 -2.7663605
00000000: 6c4b e5bf b67e 21bf 23ee 313f f597 82be
00000010: c763 163f 040f 673e 9cbd 3cc0 cca7 88be
00000020: 98c2 0a3f c7c0 39be 980b 51bf 00b2 c6ba
00000030: 4e78 07c0 d373 1ebf 7f87 1b3f 76a6 13bf
00000040: 84e3 aebe 9a30 a9bf a55e 0e3e f93a af3e
00000050: aa2f 243f ddd4 833f 0f44 f2bf a682 1bc0
00000060: 9c6e 08c0 5149 9fbf 7907 18bf 40f8 ea3b
00000070: 6079 0d3f 90c2 8fbc bd6a 6bbe 50d9 ea3e
00000080: 4a07 40c0 7f0b 8abf 388e 963f a8de 95be
00000090: 8df9 963b 1843 b73e 92b8 c8be e2bf 5ec0
000000a0: 6d1e 2ec0 4e58 6ebf 33be 613f 7cd1 143e
000000b0: 5d79 303f b2d1 03c0 81ab 94bf 0af1 9e3d
000000c0: cac8 513f e18f 2cbf 1fb1 aabf 8c60 ec3d
000000d0: 24b8 633e aff8 583f 8589 18bf 0ec6 24c0
000000e0: b7a5 f53e c975 9fbf e8a2 06be 62d3 65be
000000f0: 9011 34bd b5f6 77bd df81 98bd 0683 c3be
00000100: 9aeb 1dc0 a2b6 0ec0 cc9d aebd 043a 063e
00000110: 386c 003f afb6 1b3f 59eb 0b3f 9ae2 01c0
00000120: 8144 2d3d 1f21 f73e da37 e5be 7aa2 2fbe
00000130: 2f7b 2f3e b536 1e3f dad5 54c0 d9ec 5ebf
00000140: 6cd1 55bf e6a8 b53c e438 ddbf 63db a7be
00000150: e3c6 6d3f 9210 b03d 9bdd 31c0 8e8d 743e
00000160: 77e2 533f e50f 403f 17da 37c0 c4b5 c73d
00000170: 9d0a 14c0 0cc0 77bf 1837 54be 7171 d83d
00000180: 1d96 72be 3970 3dbf 4749 10c0 7c95 2fbe
00000190: 6292 da3e 9a97 a6be b271 c93e 31cb a03e
000001a0: f813 0bc0 74db 113f 0252 65c0 8697 333e
000001b0: 7852 033f b835 b9bf 6f5b 4f3e d9d7 0c3f
000001c0: 94c9 adbf e2cb a73d 360d 03c0 92b1 6c3e
000001d0: a045 133f 3884 fabf 2898 13c0 2dd1 863f
000001e0: 30fd 27c0 35df 08bf 766c 37be 3b93 923e
000001f0: 4c92 3c3e b322 f2bf be34 843e 5f46 873e
00000200: 2bfc 2dc0 cb01 0cc0 b846 623f f114 973e
00000210: 34d7 d2be 512a 20bf 6f98 533f 21b3 7abf
00000220: 26c4 543f bea6 e63e 15d1 65c0 98e0 003d
00000230: c21a 463e 016b e53e c715 3ec0 c494 0abe
00000240: 6f61 bb3c 1f30 08bf ed88 10bf c542 acbe
00000250: ec33 49bf 58d6 943e 0413 7c3f bb9c 37c0
00000260: 5aa7 87be d477 2fc0 3e17 853e aee1 3bbe
00000270: b902 353e df16 10c0 3b67 b83e c4cf b93d
00000280: 4b3a 01c0 6b3f 3a3f 2a2d 393d 4823 c2bd
00000290: 300e 173e 5555 cabf 6601 80c0 0c54 363f
000002a0: 005b d73e fb10 01be 1d5f 4ec0 0cdb d33d
000002b0: 04be 68bf efb8 96bd baaf 2d3f ce2b 65be
000002c0: 7c84 c73e 2ad1 1fc0 8d00 383f 3349 3bbe
000002d0: fcf3 59bd 210d f43d 0907 31be e896 4bc0
000002e0: 74e6 183e 0d1c fb3e 2158 a0bf ac58 6ebe
000002f0: 1557 cd3d 0e97 87be b7f6 60bf 8a34 b93e
00000300: 3809 16c0 5207 ad3e 6e33 0c3e f04a b6bc
00000310: 944e 9dbe 07d8 d63e 3746 debc 9de4 3fbf
00000320: 646d 9f3d 55ad 663d a570 6a3f f077 0d3d
00000330: 4224 c0bf 2e48 efbf f18f b1bd 1825 a7bf
00000340: b4fa 91bd 4ccb ed3e 75b2 58c0 ca9c 1b3e
00000350: 50de 1cbe de92 573f 57db 5abe 00c9 01bf
00000360: 39f3 553f 9e63 593e 69ac 073d c01f 103e
00000370: 725b 59bf cbc3 403e cf84 89bf 214a d9bf
00000380: 66f2 90be c0e8 1f3f 750a 7ebf 0fd0 87be
00000390: a941 e0bd f8a7 52bf 3710 3abd 693d 443d
000003a0: c0f5 d5be 589d fabc 5d54 263f 645e a9bd
000003b0: 8ce7 a23c 1951 aebf c38a b8bf ffd9 90bd
000003c0: 929d 263f a429 5e3f 5edb 11c0 aab9 60be
000003d0: f756 efbf 792c 1a3f 05fb f23d 0d0c 31c0

l3.bias f4 [31]
-0.10173139 -0.4844996 -0.28974718 -0.37483856 0.11237792 -0.16690515 -0.25762323 -0.5956675
0.16299951 -0.50750977 0.14991944 0.6732758 -0.9252333 0.48479083 -0.26116896 -0.28489843
0.21666272 -0.06461174 0.4818226 0.14295863 0.51382834 -0.6404948 0.049318094 0.07326695
0.48153156 0.36587143 -0.22606064 0.50776625 0.522203 -0.59056515 0.2195933
00000000: 8c58 d0bd 5510 f8be be59 94be d7ea bfbe
00000010: 6526 e63d 2fe9 2abe 31e7 83be aa7d 18bf
00000020: 58e9 263e 29ec 01bf 7b84 193e ce5b 2c3f
00000030: 17dc 6cbf 8136 f83e f0b7 85be 35de 91be
00000040: d5dc 5d3e 2953 84bd 74b1 f63e bf63 123e
00000050: 418a 033f 78f7 23bf c501 4a3d fc0c 963d
00000060: 4e8b f63e 8053 bb3e 717c 67be f8fc 013f
00000070: 19af 053f 472f 17bf 11dd 603e
