flask/tamil_data.pth (torch, 18199 bytes, 6 tensors)

l1.weight f4 [8, 219]
000000 e9 92 c8 3e f6 e9 a5 3d d7 c3 0f be 56 e5 39 bf
       0.39174584 0.08101265 -0.1403955 -0.72615564
000010 92 bf 19 bf ec 36 02 3d e5 75 77 be 8b b0 8f 3e
       -0.6005794 0.03179066 -0.24166067 0.2806438
000020 16 a1 b3 be d6 30 53 3f 97 e2 03 bf 7f 6a 58 3f
       -0.35083836 0.8249639 -0.51517624 0.845375
000030 9b fe 3e 3f e5 c9 24 3e 91 92 7f 3e ee 3d b7 3f
       0.7460725 0.16092642 0.24958254 1.4315774
000040 67 b5 08 3f 0a 63 80 3e b5 ef 7e be 2c 4b 48 bf
       0.534018 0.2507556 -0.24896128 -0.78239703
000050 fb bc 10 3f bb 33 12 3f 90 24 93 3e bc 0d f8 3e
       0.5653836 0.57110184 0.28738832 0.48447978
000060 56 5b a0 3e 78 72 38 3f 1a 9f 8d 3f 40 a0 dc 3e
       0.31319684 0.72049665 1.1064179 0.4309101
000070 05 6c 20 3e 39 76 54 3e 87 c2 c4 3e 85 06 21 3f
       0.15666206 0.20748223 0.38429663 0.62900573
000080 b1 f0 e5 3d 81 55 e4 3e 64 06 57 3d 23 d6 00 bf
       0.11227549 0.44596484 0.05249633 -0.50326747
000090 5f 29 ef 3e a0 d3 82 bd 95 e9 2b 3e 21 86 f9 bd
       0.4671125 -0.063880205 0.16788323 -0.12183786
0000a0 98 02 9c bd 89 ba 68 3f 64 2b 42 3e 7a c3 5d 3f
       -0.07617682 0.9090963 0.18961865 0.866264
0000b0 0f 77 56 be 70 78 5e bd e5 04 ee 3e 7b f8 34 3f
       -0.20943855 -0.054314077 0.4648811 0.7069165
0000c0 f9 dc 64 bf 94 30 3b 3d 6f 62 6d 3f 7b 60 82 3f
       -0.8939968 0.045700625 0.9272832 1.0185694
0000d0 1c c2 10 3e ed ab 13 3f 3b 5f 80 3f fa 15 39 3f
       0.14136547 0.5768421 1.0029062 0.7229916
0000e0 08 96 9b 3e 7e dd c2 be 17 11 5a 3f c2 0c 02 3e
       0.30387902 -0.3805961 0.8518233 0.12700179
0000f0 22 86 f0 3d 80 a1 81 be 0b 16 e5 be 4a 4f 9d 3d
       0.11744334 -0.25318527 -0.4474338 0.07681139
000100 56 9d fa 3e 7a 93 7a 3e 75 b3 17 3e dd 5e 86 3e
       0.48948163 0.2447032 0.14814551 0.2624425
000110 b4 4a 41 3f f9 c3 45 bf 94 cc a9 bf 46 b7 50 3d
       0.7550461 -0.77252156 -1.3265557 0.050956033
000120 9e b3 37 3f da 30 c8 be 6c 46 7e 3f 65 3c 0d 3f
       0.7175845 -0.3909977 0.99326205 0.5517028
000130 91 7c 4e bf 08 a2 4b 3f d3 77 19 3f 81 7d 37 3f
       -0.80658823 0.79544115 0.5994846 0.7167588
000140 9e 2c 8a be ca 78 8d bd d2 e9 c9 3e b6 8d 09 3f
       -0.26987165 -0.06907804 0.39436203 0.5373186
000150 de 7d a1 bd f0 65 f2 3e 56 5b 8c 3f a8 90 cb 3e
       -0.078853354 0.47343397 1.0965374 0.397588
000160 f2 05 a9 3f 90 4e 46 3e ca ee d5 3d b7 12 2c 3e
       1.3204939 0.19365907 0.10445936 0.16804014
000170 9d a8 25 bf 9e 1e bb 3f 94 c7 84 bf c2 e3 ce be
       -0.6471041 1.4618719 -1.0373406 -0.4040814
000180 c5 fd dc 3e 89 d0 8c 3e 3b b3 19 3e 2c 07 36 3f
       0.4316236 0.2750285 0.15009777 0.71104693
000190 d8 31 2e 3f 75 d0 4d 3f a4 8f f2 3e 38 78 3c 3f
       0.68044806 0.80396205 0.47375214 0.7362094
0001a0 4b b6 a4 3e 78 7e 00 3f c3 39 08 bf e5 07 e5 be
       0.32170328 0.50192976 -0.5321314 -0.44732586
0001b0 75 81 f0 be 1f 1a 76 bf e4 50 94 3f c8 56 f1 3d
       -0.46973768 -0.9613361 1.1587186 0.1178413
0001c0 79 98 e6 3e 23 d8 a2 bf 30 1f 86 3e 2f 6c c1 3d
       0.45038202 -1.272221 0.2619567 0.094444625
0001d0 c2 c1 86 3f d5 94 1b 3e c7 8b 69 3f 45 cc 34 3f
       1.052788 0.15193494 0.9122891 0.7062419
0001e0 f8 8e ce be 59 72 9d be 3c 9d 04 bf e5 56 62 3f
       -0.40343451 -0.30751303 -0.5180242 0.8841384
0001f0 c9 81 43 3f c6 ca ad 3e f7 fe 0d 3f 7e 3a 64 be
       0.7636991 0.33943766 0.5546717 -0.22287938
000200 14 19 3e bd db 92 79 bf 97 97 9b be f4 f5 4d 3e
       -0.046410635 -0.9748971 -0.3038909 0.20113355
000210 7b e3 22 3e 58 55 ea be c1 ea 7e 3e 87 ed 34 bc
       0.1590709 -0.45768237 0.24894239 -0.011042959
000220 b6 b0 6f be 92 2e cc 3e 61 02 3c bd eb f7 b3 be
       -0.23407254 0.3987928 -0.045900706 -0.35150084
000230 1c 07 b3 3e 5b 89 b6 be f4 28 8d 3e e8 72 c7 3e
       0.34966362 -0.3565167 0.27570307 0.38954854
000240 82 d2 f4 be 66 d9 a8 3e 42 bf a4 3d 21 54 fd 3d
       -0.47816855 0.32978362 0.08044292 0.12369562
000250 ec 3b ac 3d 5d c7 16 3d f2 7e 8e bc 95 9f 48 bd
       0.08409867 0.03681122 -0.017394517 -0.048980314
000260 5e 64 01 3f f4 5f 01 bf 66 95 18 3f 69 1b 0f bd
       0.50543773 -0.5053704 0.59602964 -0.03493825
000270 b2 77 bf bd f6 85 68 bd 15 35 04 3e 70 8a 5d bf
       -0.09349002 -0.05676838 0.12910874 -0.86539364
000280 aa 04 d2 3e 34 63 7a 3e d4 90 f3 3d 4f 72 ce bf
       0.41019183 0.24451905 0.11892858 -1.6128634
000290 4c 4b 0f 3d d5 bb f4 3e f8 51 48 3d 4d f0 4e bf
       0.034983918 0.47799554 0.048906296 -0.8083542
0002a0 06 40 a1 3e 5b d7 73 3f da f4 df 3e 4e 9c 59 3f
       0.31494159 0.9525048 0.43741494 0.8500413
0002b0 01 ed c7 be 23 c6 7d 3d fa 7d 8b 3e 81 b8 59 bf
       -0.39048007 0.061956536 0.2724455 -0.85047156
0002c0 73 49 b9 be 5d c8 d5 be 2d b7 89 be 86 52 61 bf
       -0.3618885 -0.41754428 -0.26897565 -0.88016546
0002d0 f4 6b b1 3f 7f 1e 29 3e d0 ad b0 3f f4 89 62 3e
       1.386107 0.1651554 1.3803043 0.22122937
0002e0 72 ab a1 3e 93 5c 0d 3e 08 4a 59 3f ac b9 94 be
       0.31576115 0.13804846 0.8487859 -0.29047906
0002f0 06 2a 94 be 85 73 6d 3f 3d c9 02 3e b1 d4 04 3f
       -0.2893831 0.92754394 0.12772079 0.5188704
000300 76 f3 bc 3e cb 4b 8a bc 02 35 48 3e 4d 2f 06 bf
       0.36904496 -0.016881844 0.19551471 -0.52415925
000310 d3 65 c2 bd b3 06 e9 be 01 d3 66 be ff 98 7f be
       -0.09492078 -0.45512924 -0.22541429 -0.24960707
000320 b3 3b 14 3e de db 8a bf 61 f5 85 3d a5 b0 70 3c
       0.14475898 -1.0848348 0.06540943 0.014690553
000330 25 d0 0c be 89 d4 a7 3e 7c 2f cd 3e 55 fb 3c 3e
       -0.13751276 0.3277934 0.4007529 0.1845525
000340 4a e5 be be 6d f1 53 3e 72 22 19 3f 4d 59 8a be
       -0.3728431 0.20697565 0.59818184 -0.27021256
000350 2a 7a 69 bf 1a 1d a3 bf a8 f0 1c 3f 73 ee 93 3f
       -0.9120203 -1.2743256 0.6130471 1.1557144
000360 be 36 77 3e b6 de ec 3e 4f 47 5b bf f3 d2 09 bd
       0.24141976 0.46263665 -0.85655683 -0.033648442
000370 30 2f 0a 3e 43 78 fc 3e 7b 77 12 bf 15 fe 1c bf
       0.13494563 0.49310502 -0.5721356 -0.613252
000380 12 a0 d7 3e 70 d6 c8 3e 70 8c db 3e 8d ae 86 bd
       0.4211431 0.39226103 0.42880583 -0.06576262
000390 45 84 0e 3e 2b eb 17 3f 48 7e 81 bf 2d df e7 3e
       0.13917644 0.5934321 -1.0116663 0.45287457
0003a0 b1 37 9a 3d 0d 10 27 3f 8c 85 89 bf 36 18 73 be
       0.075301535 0.65258867 -1.074388 -0.23739704
0003b0 7f 9a 4e be 49 2b 23 3f dc 7b 2a 3f 8b ce fe be
       -0.20176123 0.6373792 0.66595244 -0.49766955
0003c0 78 bf 78 3f 3d 73 e6 3e b1 7a b1 be 76 8e 90 3d
       0.9716716 0.45009795 -0.3466392 0.07058422
0003d0 bb 03 d1 3e f9 aa 8f bf be d4 fc bd b1 a4 fc bd
       0.4082316 -1.1224052 -0.12345265 -0.123361
0003e0 f1 18 44 be b2 dd 96 3f 1e c5 16 3f 41 0f 98 3e
       -0.1915014 1.1786406 0.58894527 0.29699138
0003f0 b4 0e 6b 3e a2 c5 7a be b6 0d 20 3f fe ab 65 3e
       0.22954828 -0.24489453 0.6252092 0.22428891

l1.bias f4 [8]
000000 0c cf a9 3f 10 d0 97 3f a8 5d 98 3f b6 7f 89 3f
       1.3266311 1.1860371 1.1903582 1.0742099
000010 65 4e 69 3f a0 28 b8 3f 97 5b e4 3f 6f 3d c5 3f
       0.91135246 1.4387398 1.7840451 1.5409373

l2.weight f4 [8, 8]
000000 16 ec 0e c0 b9 da 42 3f 71 c1 9a be 12 e7 48 be
       -2.2331595 0.76114994 -0.3022571 -0.19619396
000010 0a f9 0a 40 78 8a 98 3f 95 5a cb 3f fd 5c 48 40
       2.1714501 1.1917257 1.5887018 3.1306756
000020 79 1e cb bd d7 7a 24 3e ee 71 b7 be 68 cd a9 3d
       -0.099179216 0.16062485 -0.3582911 0.08291131
000030 9d 68 25 3e 6c 0f e8 bd 17 fd 78 be eb b8 68 be
       0.16153188 -0.113310665 -0.24315296 -0.2272679
000040 79 b3 9c 3f 63 54 3e 40 fb 52 39 40 18 fc 1d 40
       1.2242271 2.9739006 2.8956897 2.4685116
000050 e1 4f 0e 40 97 3a 41 bf fa c9 12 3f ad 7c cc bf
       2.2236254 -0.75480026 0.5733944 -1.5975548
000060 33 a9 21 40 db 99 c5 3f b7 b7 a7 3e 84 db b1 bf
       2.525952 1.5437578 0.3275735 -1.3895116
000070 d4 58 0c c0 d1 d3 88 3f ec a1 1f 40 7d f1 5d 3e
       -2.1929216 1.0689641 2.494258 0.21674152
000080 3e 85 8b 3e 72 29 75 bf 72 54 26 c0 ce de d9 3f
       0.27250093 -0.95766366 -2.5989041 1.702112
000090 3e 7b 9e 3e 30 d2 05 40 47 bd 00 40 79 a2 37 3e
       0.309534 2.0909538 2.0115526 0.17933072
0000a0 46 29 45 3e 83 12 51 be c7 01 85 3e ce da 90 be
       0.19254026 -0.20417218 0.25977919 -0.28291935
0000b0 22 b6 1d 3d a3 73 ab be e4 c8 83 be 42 da 58 be
       0.038503774 -0.3348666 -0.25739205 -0.21177009
0000c0 65 8c 0e 40 bd 0f 28 c0 77 6b de 3f 63 be 5e 3f
       2.227319 -2.6259606 1.7376546 0.8700926
0000d0 b5 67 86 3f a8 cb 27 40 f3 29 c7 bf 38 79 03 40
       1.0500399 2.6218052 -1.5559677 2.0542736
0000e0 f5 a6 23 40 e8 9b c9 bd 49 a4 06 bf d4 c2 02 40
       2.5570652 -0.0984419 -0.5259443 2.0431414
0000f0 f0 26 a9 3f f2 03 07 c0 df 3b 88 3f f4 b7 ad 3e
       1.3215008 -2.1096158 1.0643271 0.33929408

l2.bias f4 [8]
000000 b1 cb 1e 3f e6 76 92 be 97 d6 89 3e de ca 85 3f
       0.6202956 -0.28606337 0.26921532 1.0452535
000010 8a 10 01 3f b2 34 88 be 48 d6 1c 3f 76 d6 91 3e
       0.5041586 -0.26602703 0.6126447 0.28483933

l3.weight f4 [31, 8]
000000 21 c5 59 bf f8 5f eb 3c 42 1e 16 be b6 f8 76 bf
       -0.8506642 0.028732285 -0.1465998 -0.9647325
000010 35 ba 9f be 3d 20 7b 3e 6a 2d 09 3f ff 0b 81 3e
       -0.31196752 0.24524017 0.5358492 0.25204465
000020 a9 96 0a 3f 38 ec e7 3d 70 3e 28 c0 69 b6 35 3f
       0.5413614 0.11324352 -2.628811 0.7098146
000030 03 1d c2 3e 3a b9 a4 3e ff 12 0b bf a8 40 1c c0
       0.3791276 0.32172567 -0.5432586 -2.4414463
000040 7e 7e 05 c0 da 3c c4 bd e3 aa 0d 3c 0b 5c 18 3f
       -2.0858455 -0.09581919 0.0086467 0.59515446
000050 75 54 e4 bf 3d 14 ad be 0a 14 9b be b7 87 df 3e
       -1.7838274 -0.33804503 -0.30288726 0.4365823
000060 a2 3b 4b bf de 44 68 bc 11 b9 f9 3e f8 4f 9a bf
       -0.7938787 -0.0141765755 0.48774007 -1.2055655
000070 2b 49 db bf a9 94 5b 3e b9 ca 96 be 4c 9d d7 3e
       -1.7131704 0.21443428 -0.2945154 0.42112195
000080 1a 5d f8 bd 25 ce 43 be 35 fc 40 3f 26 7d 14 3e
       -0.12127133 -0.19121607 0.7538484 0.14500865
000090 9c d2 38 c0 11 b6 17 be 12 02 95 bf e4 1a 05 c0
       -2.8878546 -0.14815547 -1.1641257 -2.0797663
0000a0 b5 25 2c c0 67 3d 46 be 54 51 4d 3f ae 39 03 3e
       -2.6898015 -0.1935936 0.8020222 0.12814972
0000b0 b0 ed 92 bf aa 67 e6 bd e5 64 bc 3e a4 65 1f c0
       -1.1478786 -0.11250241 0.36795726 -2.4905787
0000c0 57 e2 01 c0 75 d2 08 3e 9a 09 6f bf 38 52 0e 3f
       -2.0294397 0.13361533 -0.93374026 0.55594206
0000d0 ec fa 24 3f f8 ba 6a 3e 96 51 13 3e bf 82 6c 3d
       0.64445376 0.22922885 0.14386591 0.057741877
0000e0 fb 37 d1 3e 66 6c df 3d de 13 0f bd 83 02 2b 3f
       0.40863022 0.10909347 -0.034931056 0.6680071
0000f0 e2 ea 67 bf 82 4d 57 be 71 2f 4c c0 3b 5a 39 bf
       -0.9059278 -0.2102566 -3.1903956 -0.72403306
000100 ea 29 4b c0 d1 9f 48 be 34 24 13 3c 44 e5 25 bf
       -3.1744332 -0.19592215 0.0089807995 -0.64802957
000110 93 ac ae bf de 92 f5 3d 8f a0 40 3f e2 0e b9 3e
       -1.3646415 0.11990903 0.7524499 0.36144167
000120 bf 45 f8 3e 2a bb eb bd 78 c4 89 bd af 87 2b c0
       0.48490712 -0.11510308 -0.067269266 -2.6801565
000130 5d 69 e9 bf 88 38 8a be 6f 12 9e 3e 04 73 44 3e
       -1.8235279 -0.26996255 0.3087344 0.191845
000140 92 74 43 c0 78 7f 2c 3e 0e 20 29 3e e6 01 13 bf
       -3.05399 0.168455 0.16516134 -0.5742477
000150 bf 09 ca 3e 48 53 48 be 92 ca dc be b4 65 2e 3f
       0.3946056 -0.1956302 -0.431233 0.68123937
000160 d5 7f 2d c0 d5 5a 89 3d 9d 58 29 3f ca c9 2f c0
       -2.7109272 0.06706778 0.6615084 -2.7466912
000170 74 9a 0e c0 d5 fa 1a 3e dd ad f3 3e 01 3d 4a 3e
       -2.228177 0.15134747 0.47593585 0.19749834
000180 dd 69 51 3f b4 ba 5f be cf 3d ae bf d6 86 06 c0
       0.8180216 -0.21848565 -1.3612612 -2.1019797
000190 a3 5e 80 3f d5 27 42 be 27 08 01 3d 26 7c 52 bf
       1.0028881 -0.18960507 0.031501915 -0.82220685
0001a0 cf b2 3e bf 7c 45 76 3e dc 76 9f bf aa 79 c9 3e
       -0.7449159 0.24049944 -1.2458148 0.39350635
0001b0 6b b5 fb bf 7d 9f 94 3e 29 cc 5d 3f 43 4a 95 3e
       -1.9664739 0.2902793 0.8663965 0.2915822
0001c0 0b 71 16 c0 c2 68 40 3e de 2e 93 be a5 e4 8f bf
       -2.3506496 0.18789962 -0.28746694 -1.1241652
0001d0 b9 57 17 3f 42 90 3d be b3 c0 20 3f 19 d7 82 be
       0.5911823 -0.18512061 0.62794036 -0.2555473
0001e0 32 48 cc bf 03 c6 79 3e b9 8f a2 3e f2 b0 57 3f
       -1.5959532 0.24391942 0.31750277 0.8425437
0001f0 af ef 1f c0 22 f2 80 3d a6 2b 3f c0 01 f7 6d 3e
       -2.4990041 0.06296183 -2.987039 0.23238756
000200 03 f7 d9 3e 16 02 5f 3e a5 db 07 3f d8 90 be bf
       0.42571267 0.2177814 0.53069526 -1.4887953
000210 31 59 e8 bf 6e 9e 5b 3e 6b 47 c6 bf c8 fd cc bc
       -1.8152219 0.21447155 -1.5490545 -0.025023356
000220 1c d4 1f 3f 70 58 ae 3d 7a d0 ac be 4e 2f 9b bf
       0.6243303 0.08512962 -0.33752805 -1.2123811
000230 8c 60 84 bc fe 3a 55 bd 91 13 d5 bf 79 51 eb 3e
       -0.016159318 -0.052058212 -1.6646596 0.45960596
000240 90 c5 25 bf 3c d3 5a be 93 52 c9 be ae c9 43 3f
       -0.6475458 -0.21369642 -0.39320812 0.76479614
000250 b5 83 10 c0 39 e7 f2 3d ae 1f 16 3f 2a 0c 38 c0
       -2.2580388 0.118605085 0.5864209 -2.8757424
000260 14 ec c6 3e 1f 0c a9 3d c8 d2 6a bf 2a 9a 4d 3f
       0.38851988 0.08254265 -0.91727877 0.8031336
000270 35 ff 38 3f 10 f6 51 3e 52 c0 32 c0 fd a8 2a c0
       0.72264415 0.20504022 -2.7929883 -2.6665642
000280 6a 17 ad 3e 36 3b 83 be 64 e2 23 bf a3 63 fd be
       0.33806926 -0.25631112 -0.6401732 -0.4949008
000290 62 c9 12 bf fc 42 f7 3c bf 09 47 3f fb 48 13 c0
       -0.57338536 0.030183308 0.77749246 -2.3013294
0002a0 6b 58 4b 3f b0 cb 8f 3e 18 d8 c4 bf 22 a0 34 c0
       0.7943179 0.2808509 -1.5378447 -2.8222737
0002b0 e2 6d 33 be a1 cf 2a bd ef c9 75 3f f5 55 01 c0
       -0.17522386 -0.041701917 0.9601125 -2.0208714
0002c0 9e c7 9b bf 8e 9c 1b 3e 5d 80 1f bf 4d 0e 87 3f
       -1.2170293 0.1519644 -0.6230524 1.0551239
0002d0 cd b6 e5 3e d0 a7 9b 3e a6 76 22 c0 a9 db dc 3e
       0.44866028 0.30401468 -2.5384917 0.43136337
0002e0 59 b2 e5 3e 4b dc 8f 3e 51 53 b3 be de 70 2f bf
       0.4486263 0.28097758 -0.35024503 -0.68531597
0002f0 e9 01 30 3d 20 bc 13 3e a2 b6 05 be 4e f4 12 bf
       0.04297057 0.14427233 -0.1305795 -0.5740403
000300 33 31 f1 3e 2e d7 c0 3c 7b b7 3c c0 b5 b2 01 bf
       0.4710785 0.023540106 -2.9486988 -0.5066331
000310 69 77 04 3f 47 2a 1c bd 6f 24 35 3f 1e bc 29 c0
       0.51744705 -0.038126256 0.7075872 -2.6521068
000320 45 04 fc bf 5b e6 19 be 44 3c 40 3f 59 1e ce be
       -1.9688803 -0.1502928 0.7509196 -0.40257528
000330 3b d4 d9 bf 5b b8 98 3e 6d 76 fe bf 94 46 1d 3f
       -1.7017893 0.29828152 -1.9879891 0.6143582
000340 be 00 86 3d 7d 75 66 3e 43 84 97 be da 02 4f c0
       0.0654311 0.22505756 -0.29593095 -3.234549
000350 10 06 dd 3e 2d 2e 31 3e 1a b9 22 3f 9b 31 09 bf
       0.43168688 0.17302771 0.6356369 -0.53591317
000360 3a c6 19 bf 84 f6 09 bd 8a c4 77 3e 83 ea ad be
       -0.60068095 -0.03368236 0.24196067 -0.3396798
000370 9b 53 0a bd 35 44 cf 3d 76 83 86 bf e5 8e a3 3e
       -0.03377114 0.10120431 -1.0508869 0.31944957
000380 55 b0 4d bd 5f 46 2d be 9c a0 90 bf be c7 b5 3e
       -0.05021699 -0.16921376 -1.1299014 0.35503954
000390 20 32 48 3f 1b 0f 80 3e 4b d1 2d bf e2 fc 15 bf
       0.78201485 0.25011525 -0.6789748 -0.58588994
0003a0 6d 61 22 bf e4 6b 29 3e 6b 94 20 c0 4d 30 3b 3f
       -0.6342991 0.16545063 -2.5090587 0.73120576
0003b0 6d b2 99 3e 86 47 a1 be ae 1b 0b 3f 84 b9 7e bf
       0.3001894 -0.3149988 0.5433911 -0.99501824
0003c0 ba 5c 9f be 82 d7 b8 3d 28 a4 ab bf 42 ec 55 bf
       -0.31125432 0.0902548 -1.3409472 -0.83563626
0003d0 56 1c 15 3f b6 d7 ae be cc ec 12 3f 11 36 ef 3d
       0.5824636 -0.3414895 0.57392573 0.11680234

l3.bias f4 [31]
000000 f9 f3 8c be 55 62 e0 be 45 cb 57 bd 22 f9 9b 3d
       -0.27529886 -0.4382502 -0.052684087 0.07615878
000010 62 e4 4d bc 4a ef e0 bc 6d cf bc bd e4 ce ad 3e
       -0.012566658 -0.027457852 -0.09219251 0.33946908
000020 71 ab a3 be 58 60 f1 bd b3 14 5b 3e e6 e0 0d 3b
       -0.31966737 -0.11785954 0.21394615 0.0021648942
000030 60 fa e9 be 25 7d b7 bd 10 7f 40 be 3a ff bb 3d
       -0.45698833 -0.08959416 -0.1879847 0.0917954
000040 d9 fa 21 3e 8e bb 95 be a6 99 d2 3d 9d 73 a2 3e
       0.15818347 -0.29244655 0.10283212 0.3172883
000050 41 b1 11 3e 66 f2 ce 3e 8d 1b 10 3f 1d 4c 8b be
       0.14227773 0.4041931 0.5629204 -0.27206507
000060 51 6f 4b be 82 85 a2 be 00 89 fc bd be 06 b2 be
       -0.19866683 -0.31742483 -0.12330818 -0.3477077
000070 b3 9f fe bc 2e 3b d6 bd 60 f6 d1 be
       -0.03108201 -0.104605064 -0.41008282
